# Ultralytics YOLO 🚀, AGPL-3.0 license
# CBAM Ablation Study 3: Multiple CBAM at P3, P4, P5 levels

# Parameters
nc: 80
scales:
  n: [ 0.33, 0.25, 1024 ]
  s: [ 0.33, 0.50, 1024 ]
  m: [ 0.67, 0.75, 768 ]
  l: [ 1.00, 1.00, 512 ]
  x: [ 1.00, 1.25, 512 ]

backbone:
  - [ -1, 1, Conv, [ 64, 3, 2 ] ]
  - [ -1, 1, Conv, [ 128, 3, 2 ] ]
  - [ -1, 3, C2f, [ 128, True ] ]
  - [ -1, 1, Conv, [ 256, 3, 2 ] ]
  - [ -1, 6, C2f, [ 256, True ] ]
  - [ -1, 3, CBAM, [256, 7]]
  - [ -1, 1, Conv, [ 512, 3, 2 ] ]
  - [ -1, 6, C2f, [ 512, True ] ]
  - [ -1, 3, CBAM, [512, 7]]
  - [ -1, 1, Conv, [ 1024, 3, 2 ] ]
  - [ -1, 3, C2f, [ 1024, True ] ]
  - [ -1, 1, SPPF, [ 1024, 5 ] ]
  - [ -1, 3, CBAM, [1024, 7]]

head:
  - [ -1, 1, nn.Upsample, [ None, 2, "nearest" ] ]
  - [ [ -1, 7 ], 1, Concat, [ 1 ] ]
  - [ -1, 3, C2f, [ 512 ] ]

  - [ -1, 1, nn.Upsample, [ None, 2, "nearest" ] ]
  - [ [ -1, 5 ], 1, Concat, [ 1 ] ]
  - [ -1, 3, C2f, [ 256 ] ]

  - [ -1, 1, nn.Upsample, [ None, 2, "nearest" ] ]
  - [ [ -1, 2 ], 1, Concat, [ 1 ] ]
  - [ -1, 3, C2f, [ 128 ] ]

  - [ -1, 1, Conv, [ 128, 3, 2 ] ]
  - [ [ -1, 18 ], 1, Concat, [ 1 ] ]
  - [ -1, 3, C2f, [ 256 ] ]

  - [ -1, 1, Conv, [ 256, 3, 2 ] ]
  - [ [ -1, 15 ], 1, Concat, [ 1 ] ]
  - [ -1, 3, C2f, [ 512 ] ]

  - [ -1, 1, Conv, [ 512, 3, 2 ] ]
  - [ [ -1, 12 ], 1, Concat, [ 1 ] ]
  - [ -1, 3, C2f, [ 1024 ] ]

  - [[21, 24, 27, 30], 1, Detect, [nc]]
